ok_nomadpi.onnx (onnx, 205430 bytes, 9 tensors)

layer1.weight f4 [32, 1536]
000000 42 de 0e bc 52 f2 ac 3c e8 b4 16 3c 01 da b8 bc
       -0.008719983 0.021111641 0.009198405 -0.02256489
000010 fb 93 14 3d fc 3e b9 3c 15 f9 bc bc da 28 70 3a
       0.036273938 0.022613041 -0.02306799 0.0009161361
000020 7f 72 1d bc 2d 3c bd bb 9e e5 a1 3c 8e dd a1 3b
       -0.0096098175 -0.005774996 0.01976281 0.0049397415
000030 90 90 67 ba 82 03 7c 3c f3 5f e1 bc 63 0c 6e bb
       -0.0008833492 0.015381696 -0.027511572 -0.00363233
000040 de bf 70 bc 83 0f 20 3d b9 37 3a bc a1 64 88 bc
       -0.014694182 0.039077293 -0.011365824 -0.016649546
000050 d1 1f 8c bc f3 39 c9 3c 58 ab 18 3c b2 f8 ec 3c
       -0.017105015 0.024563765 0.009318195 0.02892718
000060 14 4f 8d bc ae 47 32 bc 08 62 af 3c 64 19 a2 3c
       -0.017249621 -0.010881348 0.02140905 0.019787498
000070 ea 5e 11 bb e0 ff 0e 3c ee 1b 09 3c c3 02 6f 3c
       -0.0022181817 0.008727998 0.008368475 0.014588061
000080 f6 5c 91 bc 8d 33 f8 3a e3 d3 6f bc 4e 77 d5 3b
       -0.017744523 0.0018936262 -0.01463792 0.0065144664
000090 df 8c 3a bb 96 86 46 3c bb 87 2b 3c d8 53 b5 bc
       -0.0028465313 0.012117049 0.010469372 -0.022134706
0000a0 28 f4 7c bc 77 b2 93 3b d8 21 b0 bb f6 96 c5 bc
       -0.015439071 0.0045073587 -0.0053751282 -0.024119835
0000b0 d7 44 09 3c 4d 0c 86 bc fe 6b 37 bb e6 d8 10 3c
       0.008378229 -0.016363287 -0.0027987952 0.008840775
0000c0 11 e5 9b bc 51 e4 89 3c bf 36 0f 3c 9d 83 9f bc
       -0.019030126 0.016832503 0.00874108 -0.019471938
0000d0 33 d8 af bc 3d 35 8f 3c 0e 62 cb 3c 20 be b1 3c
       -0.021465397 0.01748144 0.02482703 0.021697104
0000e0 dd 7d 06 bc 00 92 72 bc 6e 60 19 3a 9a 77 45 bc
       -0.008208719 -0.014805317 0.0005850856 -0.012052441
0000f0 a3 8e 1f 3b 26 8c 65 3c cb d8 b2 bc 98 24 64 bb
       0.0024346493 0.014010465 -0.02183189 -0.003481185
000100 22 63 fa 3b 68 e5 ba 3c 9a ed 9a bb 92 95 79 3b
       0.007641212 0.022814468 -0.0047280313 0.0038083536
000110 83 cc f8 3a 9c e3 c2 bc 9b 7d 78 3b fa 63 15 bc
       0.0018981848 -0.023790173 0.0037916664 -0.009118075
000120 be db 3b 3d c2 db 2b 3b 8d d3 da bb 9f 76 82 3c
       0.04586386 0.0026223515 -0.006678051 0.015925704
000130 d0 82 47 3c 43 86 57 bb 50 d4 79 3a c0 a8 b4 bc
       0.012177184 -0.0032886423 0.0009530233 -0.022053123
000140 31 b5 15 bb df 9c c9 bc 86 8f 92 bc 53 52 77 3c
       -0.0022843594 -0.024610935 -0.017890703 0.015095311
000150 aa 1f d0 bb 4d 3f 73 3b 5e 32 04 bd a6 7a 11 bd
       -0.006351431 0.0037116588 -0.032274596 -0.035517357
000160 13 f7 50 3c 35 fb bc 3a 4b 07 19 3d e9 e5 38 bb
       0.01275422 0.0014418127 0.03736047 -0.002821321
000170 56 12 8a bb 2f 70 48 bc c0 52 c8 3c 12 c8 7a bc
       -0.0042136116 -0.012233778 0.02445352 -0.01530649
000180 dd 91 55 bc 6c e8 ab 3c 1a c4 cc bc dd 6a 16 3d
       -0.013035265 0.02098485 -0.024995852 0.036723007
000190 8b 13 e4 3b 42 85 18 bc f4 a5 13 bc c5 08 0c 3c
       0.0069603375 -0.009309115 -0.009011734 0.008547013
0001a0 29 66 82 ba f8 8c 91 3c 1e e4 ac 3c 95 7c 3e bc
       -0.0009948659 0.017767414 0.021104869 -0.011626382
0001b0 6a 63 da bb 54 7f b3 bb 51 06 8e 3c 8d f2 81 3c
       -0.006664683 -0.005477825 0.017336996 0.015862728
0001c0 6d b1 b4 bc 2e 8c e4 3c 02 7c 3a bb 6b e1 16 3c
       -0.02205726 0.027898874 -0.0028455262 0.009209017
0001d0 58 19 dd 3c 6a 86 81 3c 77 42 42 bc 34 2b cc bb
       0.026989624 0.015811164 -0.011856667 -0.006230736
0001e0 2a 3d 5a 3b a0 3d 59 3c e6 a4 4c bc d6 30 ff bb
       0.0033300617 0.013259321 -0.012490487 -0.007787804
0001f0 04 8c 3a 3c 9e 19 b0 bb a0 9f a9 bb bc 90 9e bc
       0.011385921 -0.0053741476 -0.0051764995 -0.019356124
000200 b9 33 20 3c fd 0b 24 3c 0a cc 1c bc 90 68 4c bc
       0.009777957 0.010012624 -0.009570131 -0.0124761015
000210 f2 b1 a9 ba cb 80 f3 bb 9c c8 a8 bb bf 1e c7 3b
       -0.0012946709 -0.007431125 -0.0051508676 0.0060766633
000220 56 51 c4 bc 1a 65 b5 b8 ab c4 3f bc bb 2f 60 bc
       -0.023964565 -8.649584e-05 -0.011704604 -0.013683255
000230 e3 86 e1 3b 48 bc 7c bc ed 5a d1 bc f3 e8 64 bb
       0.006882535 -0.015425749 -0.025556052 -0.0034928888
000240 9c a2 32 bc 6b d2 bf 3c e2 3b 9b 3b d6 6b 40 3c
       -0.010903027 0.023415765 0.004737363 0.01174446
000250 42 c8 0d bd 42 a9 1b bc 45 4d d0 3c 0c fc 05 bb
       -0.03461481 -0.009500803 0.02542747 -0.002044442
000260 c7 7d c3 bc d3 5a 6d 3c e3 f7 42 bb 4c 19 03 bb
       -0.023863686 0.014486986 -0.0029749803 -0.0020004092
000270 af 89 42 bd 6a 83 c1 bc ad 07 ec bb 0a d6 f3 3b
       -0.047494587 -0.023622233 -0.0072030635 0.007441287
000280 ef 6d 87 bc fe c1 97 3c de ad a4 bc 3b 9d 4f bc
       -0.016531913 0.01852512 -0.020102438 -0.012671764
000290 d6 5f c9 bb 29 20 85 bc 36 56 95 bc 2e 86 d6 bc
       -0.0061454577 -0.016250687 -0.018229585 -0.026187029
0002a0 b2 86 0d 3c 70 ca 5e bb 93 fe 54 3c 2a 6e 22 ba
       0.008638071 -0.0033995174 0.013000148 -0.00061962253
0002b0 f9 c8 04 bc ab 0e 43 3c 60 68 7b 3b 8b ec e5 bb
       -0.008104556 0.011905353 0.0038361773 -0.0070167235
0002c0 10 1e 12 bc 16 3f e5 bb f0 b0 15 3c 2d d0 0e 3c
       -0.0089183 -0.006996046 0.0091364235 0.008716625
0002d0 d0 24 3b bc 64 8c bf bc 92 74 36 bc 4b a3 c1 3c
       -0.011422351 -0.023382373 -0.011136191 0.023637434
0002e0 b5 6d 0b 3c 40 ca 84 bc ee 03 fc 3c c6 d2 89 bc
       0.008510043 -0.016209722 0.030763593 -0.016824137
0002f0 9c f0 c8 bc ff 84 82 3c 82 42 07 3c 1a 0b 83 3c
       -0.024528794 0.015932558 0.008255603 0.015996505
000300 b6 a4 8d 3c 1c 6a c2 bb 13 d1 76 bc e4 7e 9b 3c
       0.017290454 -0.0059330594 -0.015064496 0.018981405
000310 48 05 f3 3c a9 39 84 bc 58 d0 c6 bc 8a 31 85 bc
       0.029665604 -0.016140776 -0.024269268 -0.016258974
000320 12 4e f0 bc 8e a7 f2 3a 55 83 99 bc 6a 02 91 bc
       -0.029334102 0.001851307 -0.018739382 -0.017701346
000330 93 71 23 ba d7 ce 97 bb a2 83 da bc 6a b2 6f 3c
       -0.00062348804 -0.0046328115 -0.026674096 0.01462994
000340 e3 6b e9 3b a1 ef 03 3d 45 ee 6f bc 75 b3 2d 3c
       0.007123457 0.03221095 -0.01464421 0.010601868
000350 5d 51 90 bc 17 18 ab 3c 9d 20 6c bc 42 f8 1c bc
       -0.017616922 0.02088551 -0.0144120725 -0.009580674
000360 00 03 35 3c d9 82 bf bc 31 31 0a 3c 7a 17 5c b9
       0.011048079 -0.023377823 0.00843458 -0.0002098958
000370 28 48 2b bc 22 38 92 3c ab 7a 6f 3c 58 6d 7c bb
       -0.010454215 0.017849032 0.014616649 -0.0038517322
000380 15 ea a0 3b 10 01 75 bc 75 f9 18 3a 7c 0c 0c bd
       0.0049107173 -0.014953867 0.0005835512 -0.034191594
000390 e6 ee 5a b9 36 73 8b bc 6e 2f 89 3b 42 ec a1 bb
       -0.00020879097 -0.01702271 0.0041865623 -0.004941494
0003a0 ca ad 38 bb 66 b3 92 bc e3 ab b1 bb 4e 7d 7e 3a
       -0.0028179758 -0.01790781 -0.005422102 0.0009708003
0003b0 8e 66 ac bc ab ed 7c bc 60 6a 89 bc aa 9f 9f 3c
       -0.021044996 -0.015437524 -0.016774356 0.019485313
0003c0 7b db 1d bb fb b3 7d bc d9 1b 3e 3c c2 44 3f 3b
       -0.002408712 -0.015484805 0.011603319 0.002918527
0003d0 20 2a 2e bd 58 da da 3c c6 7a 24 bc 63 25 c2 3b
       -0.042520642 0.026715443 -0.010039037 0.005924867
0003e0 6f 94 8f 3c 87 00 b8 3c a6 f3 b1 3a 2b 3b ae 3b
       0.017526833 0.022461189 0.0013576641 0.005317112
0003f0 02 a9 42 bd ed b7 9f bc 02 7d 40 bc c0 44 b9 bc
       -0.04752446 -0.019496882 -0.011748554 -0.02261579

layer1.bias f4 [32]
000000 0b 2c 89 3b 27 97 ad bb 26 6c 8c 3b 1d 24 c0 bc
       0.0041861585 -0.00529756 0.0042853532 -0.02345472
000010 9a 55 d7 bc 25 3e 51 bc 50 8e 81 3c a1 f4 07 3a
       -0.026285935 -0.012771164 0.01581493 0.0005186294
000020 f6 0b b8 3c 80 82 c4 bb 90 cb 0d bc 6e 87 e9 bc
       0.02246664 -0.005997002 -0.00865449 -0.02850696
000030 6c 62 33 bb e9 d6 c1 bc 6d d6 52 3c 98 35 e2 bb
       -0.0027371896 -0.023662047 0.012868506 -0.0069033615
000040 e3 86 56 bc 7e ea bb bb 5a d8 d8 bc 96 42 5a bc
       -0.013093683 -0.0057347408 -0.026470352 -0.013321539
000050 c3 fa 38 3a e2 41 9a 3a f6 8b 3b 3c e6 4a 52 bc
       0.00070564094 0.0011768902 0.0114469435 -0.01283524
000060 1e 84 21 3b be b0 53 3c d3 1a e8 bb c6 8b 53 bc
       0.0024645398 0.012920557 -0.007083276 -0.012911743
000070 cc cb a9 bc 5d 06 76 bc 70 58 91 3c 83 83 9d bb
       -0.02072706 -0.015016166 0.017742366 -0.004806937

layernorm1.weight f4 [32]
000000 7e 14 7f 3f 8b 1c 80 3f 36 cc 7f 3f 35 b9 7f 3f
       0.99640644 1.0008711 0.99920976 0.9989198
000010 f2 c0 7f 3f c6 25 7e 3f c2 a1 7f 3f c6 93 83 3f
       0.99903786 0.9927639 0.998562 1.0279472
000020 c2 c2 7d 3f 48 55 82 3f 54 77 84 3f 41 63 80 3f
       0.991253 1.0182276 1.0348916 1.003029
000030 45 75 89 3f 02 97 7f 3f 16 ff 7d 3f 78 d7 80 3f
       1.0738913 0.99839795 0.99217355 1.0065756
000040 f6 a3 7f 3f 42 6e 7e 3f d2 94 7f 3f 6a 13 81 3f
       0.9985956 0.9938699 0.99836457 1.008405
000050 ba 6a 7b 3f 29 dd 83 3f cb 9b 76 3f 4b de 82 3f
       0.98209727 1.0301868 0.9633147 1.0224088
000060 02 5c 7e 3f ae 76 7f 3f f0 be 7e 3f 9f fc 80 3f
       0.9935914 0.99790466 0.995101 1.0077094
000070 ea 95 7a 3f d0 0d 7e 3f 16 7a 7f 3f 70 5c 87 3f
       0.97885 0.99239826 0.99795663 1.0575085

layernorm1.bias f4 [32]
000000 5e 4b 88 bc 25 a6 cf 3b fd 10 40 bb a7 c0 92 bb
       -0.0166375 0.0063369446 -0.0029307 -0.0044785324
000010 b8 87 66 bb f2 d0 bc ba 66 30 c8 bb 32 a3 a5 3c
       -0.003517611 -0.0014405532 -0.006109285 0.02021942
000020 f0 a0 ca 3b 6a 89 19 3c 53 1b db 3c cf d3 06 bc
       0.006183736 0.009371141 0.026746428 -0.00822921
000030 be 8e b9 3b db 05 73 bb b1 77 31 bc 98 2a dc 3c
       0.005662768 -0.0037082348 -0.010831759 0.026875779
000040 cd d0 c3 bb a6 02 10 3c c9 55 8d bb c8 ba 15 3c
       -0.0059758187 0.008789694 -0.004313205 0.00913877
000050 74 53 48 bb 38 42 63 3c e6 c2 eb 37 76 59 eb 3a
       -0.003056732 0.013870768 2.810494e-05 0.0017955739
000060 89 4f 0e 3a 60 57 f2 bb 27 1b 31 b9 c2 96 46 3c
       0.0005428722 -0.00739567 -0.0001689015 0.012120904
000070 a2 c6 cd 3b 4d 29 22 bb 1d 9b ba bb 46 9b 86 3c
       0.0062797824 -0.0024743855 -0.0056947605 0.016431462

blocks.0.fcn_layer.weight f4 [32, 32]
000000 f8 2f 98 bc d8 21 13 3e 15 d8 f7 3d 23 f6 9e bd
       -0.01857756 0.14368379 0.12101761 -0.077617906
000010 fd 9d 62 3d 73 2c 19 bd 2f 1d 94 3d f2 7e 11 3e
       0.05532645 -0.037395906 0.07232129 0.14208582
000020 db 1c d8 3d bd 40 53 3d 5a 82 c3 3c 71 27 4b 3d
       0.10552379 0.05157541 0.023865867 0.04959816
000030 10 32 34 be 62 da 16 be 8d 12 9e 3d f3 0e 3e bd
       -0.17597222 -0.14731744 0.07718382 -0.046400975
000040 71 e3 21 be 92 fd 7e 3d 96 6c ac bd 20 79 d3 3b
       -0.15809418 0.062253542 -0.084191486 0.006453648
000050 4b 67 54 bd 38 af fe bd 7a 58 ed bc fb c4 3d be
       -0.05185632 -0.12435764 -0.028972853 -0.18532173
000060 d3 a0 98 bd b6 57 01 3e 7a de fd 3b 72 e7 da 3d
       -0.0745255 0.12631115 0.0077474685 0.10688676
000070 d8 83 1b bd be 87 cf 3c 13 c7 02 bd ba 82 f5 3d
       -0.037967533 0.025333282 -0.031928133 0.11987825
000080 a7 47 ad ba e2 1f d0 bc 8d cb 9c 3d 68 42 9d 3d
       -0.0013220207 -0.025405828 0.07656012 0.076786816
000090 3a b5 e3 3d cf 3a 95 3a 06 61 a9 3d b4 94 b6 3d
       0.111185506 0.0011385324 0.08270459 0.089150816
0000a0 10 5b 8a bd 53 45 9a bd b4 12 03 3d 83 ff 09 3e
       -0.0675565 -0.07532754 0.03200026 0.13476376
0000b0 19 8d b1 3d 8c f8 3b bd 4b 5b a3 bd 89 56 96 3d
       0.0866949 -0.04589133 -0.07976397 0.07340724
0000c0 18 44 f6 bd fe 12 0a be a9 b8 99 3d 1e bf 28 be
       -0.120247066 -0.13483807 0.07505924 -0.16479155
0000d0 96 cb 2c 3d d0 c6 f9 3d 38 46 0f be 26 74 19 3e
       0.042186342 0.121961236 -0.1399163 0.14985713
0000e0 d9 5f b8 3c 0e 48 15 3e f1 ea 98 bb 90 09 56 3d
       0.022506641 0.14578268 -0.004666679 0.052255213
0000f0 08 60 6c bd 82 ef c0 bd 99 ba 2e 3d be 64 8a bd
       -0.05770877 -0.094206825 0.042658422 -0.06757496
000100 c0 d1 a9 bd c6 2c f8 bd ef 02 b8 3d 76 5a 06 ba
       -0.0829196 -0.12117915 0.089849345 -0.0005125174
000110 d6 6b 02 3d 8e bc 23 3d 5e b0 f8 3d 86 dc 2b be
       0.03184112 0.03997474 0.12143014 -0.16783342
000120 3a 3e a9 3d cb b0 a2 bc 2c 50 4c 3d 5e b6 84 bb
       0.08263822 -0.019859692 0.049881145 -0.00405006
000130 20 25 44 3c 56 4c a9 bd 52 22 1c 3e 6d dd ac bd
       0.011971742 -0.08266513 0.15247467 -0.08440671
000140 ba cb 82 3d 50 05 f1 bd 4e c3 f7 bd 5b 0e e1 bc
       0.06386514 -0.117685914 -0.12097798 -0.027472666
000150 72 9d 25 be e8 34 27 bd c6 f1 01 3e 4c d3 3e 3e
       -0.16173342 -0.04082194 0.12689885 0.18635291
000160 ee c9 50 3d 7f c6 09 be f8 e6 9a 3c 17 be c7 3d
       0.050973825 -0.13454627 0.018908963 0.09753054
000170 a5 10 95 3c 88 5a 27 3c 30 18 1f be a2 18 bd 3d
       0.018196413 0.010214455 -0.1553657 0.09233214
000180 bc a5 41 bd 8b 80 35 3e f5 56 16 3d b2 ba a4 bd
       -0.047277197 0.17724817 0.036704022 -0.08043422
000190 25 c0 3e 3e 7e bb 2c be 48 98 07 3d 6e 47 96 3c
       0.18627985 -0.16868398 0.03310421 0.018344607
0001a0 53 9a 01 bc 27 16 18 3e 60 44 76 3d 42 0a 19 3e
       -0.007910329 0.148522 0.0601238 0.1494532
0001b0 eb 37 61 3e 40 ba 26 3e 30 6f ca bc 0d 87 9b bd
       0.21993987 0.16281986 -0.024711221 -0.07594118
0001c0 db 02 22 be 44 5d 81 3c 89 e1 9d 3d e1 36 04 3c
       -0.15821402 0.015791543 0.07709033 0.008069725
0001d0 dd 00 db bd 6a 84 b7 bc 55 c7 6f 3d 1d b9 c0 3d
       -0.10693524 -0.022402007 0.058539707 0.094103076
0001e0 ea a3 7a bb 0f 38 11 3e a8 15 28 bd ba ec f8 bc
       -0.0038244673 0.14181541 -0.041036278 -0.030386318
0001f0 b5 8a 55 bd be c6 12 be be b7 a3 3c 6f f5 00 be
       -0.052134234 -0.14333627 0.019985076 -0.12593625
000200 ee d9 f0 3c b5 56 fa 3d a3 18 54 3d 50 56 f3 bc
       0.029400792 0.12223569 0.051781308 -0.029704243
000210 5c 94 a0 bd f6 1d 7d 3b 80 b6 74 3d c0 f1 c5 3d
       -0.07840797 0.0038622594 0.059744358 0.09665251
000220 e4 b3 14 bd 8a 96 2c 3e c0 2f fd bd f0 a9 57 bc
       -0.03630437 0.16854301 -0.12362623 -0.013163075
000230 8f db 41 3e f8 4c 0f 3e d2 86 fc 3d 55 ef 1f bc
       0.18931411 0.13994205 0.123304024 -0.009761651
000240 8d 0f 81 bd c1 0e 03 3e 46 52 d2 3d 5a 87 38 bd
       -0.06301794 0.12798597 0.10269599 -0.045050956
000250 fb 67 fa bd 9a 3c 8c 3d b3 a8 f2 bd 02 25 26 3e
       -0.12226864 0.06847496 -0.11848583 0.16225055
000260 85 99 f7 3d ba 6a e7 bd 92 64 fd bc b6 6a c9 3c
       0.120898284 -0.11299653 -0.030931745 0.024587017
000270 8e ba 50 bd e1 75 ae bc 1e d0 2f 3d 03 9c c3 bc
       -0.050959162 -0.021296443 0.042923085 -0.023878103
000280 ba 5b 30 3d 01 15 38 3d 8b b5 91 bc d7 80 cc 3d
       0.043056227 0.044941906 -0.017786762 0.09985512
000290 f6 cd 05 be 26 8a 22 3e d6 34 e1 bd c8 0c 10 be
       -0.13066849 0.15873012 -0.10996406 -0.14067376
0002a0 5b 29 80 bd 96 24 f4 bc e8 62 58 3d 1b 48 e0 3d
       -0.06257888 -0.029802602 0.0528287 0.10951253
0002b0 62 4f 73 3e 4a d9 a3 3d 06 e0 ab 3d 41 89 b0 bd
       0.23760751 0.08000429 0.083923385 -0.08619929
0002c0 2a 8b d8 3a a0 a9 17 3e a2 ae e3 3d 98 5d eb 3d
       0.0016520966 0.148108 0.11117293 0.11492461
0002d0 1e 5b 1d be 8e 90 f2 bd 39 61 91 3d 4d 94 d2 3d
       -0.1536679 -0.11843978 0.07098622 0.102821924
0002e0 3a 37 0a bd 4a 0d 1a be 60 4c 85 bd 1e 04 54 bd
       -0.033744074 -0.15044132 -0.06508708 -0.05176174
0002f0 b2 7d 83 3d 9f 84 92 3c 41 a5 11 3e 3c ea bf bd
       0.06420459 0.017885504 0.14223196 -0.093708485
000300 c4 45 85 3d 0b 46 d4 3d 65 9d e1 3b c8 b1 14 3e
       0.06507447 0.10364922 0.006885218 0.14520943
000310 dd 0c e1 3d 8a 99 7f 3d fe fc 63 bd be 44 a1 bd
       0.109887816 0.062402286 -0.055661194 -0.0787444
000320 1a e6 11 3d 1d 9a 46 3d 17 e7 a9 3b eb 7c 2c be
       0.035619833 0.048486818 0.0051850188 -0.16844527
000330 e2 0f 3d bd 7a 74 0e 3e b2 21 af bb 35 8f e4 bd
       -0.046157725 0.1391162 -0.005344593 -0.11160127
000340 b4 bd 16 be b1 d2 04 3e 48 cf bb bd 9f 80 c1 3d
       -0.14720803 0.12970997 -0.09170395 0.09448361
000350 16 4c 03 3e 5a f2 6a 3d 2a fc d4 3d e0 a9 53 3d
       0.12821993 0.05736003 0.10399659 0.051675677
000360 02 81 e2 3d 42 b0 cc bc 31 df 21 bd e3 52 f8 bd
       0.110597625 -0.02498639 -0.039519493 -0.121251844
000370 eb 97 e4 bc e1 76 98 bd 59 5a 8e bd 1d 8e c8 bd
       -0.027904471 -0.07444549 -0.06950826 -0.09792731
000380 66 9f 2e be 96 9d ee 3d a0 ba 34 3e b0 5f 2a 3e
       -0.17052993 0.11651151 0.17649317 0.16638064
000390 e7 8e 1d 3e e9 14 b7 bc 32 bd 96 3c ee fc 81 bd
       0.15386544 -0.022348838 0.018400762 -0.06347071
0003a0 c5 84 fc bd c2 42 16 3e 46 e3 1a 3e fd 94 da 3c
       -0.12330011 0.14673904 0.1512576 0.026682371
0003b0 18 87 63 3e 93 d6 79 bd f5 a4 d5 bd d5 96 8e bd
       0.22219503 -0.06099565 -0.10431854 -0.06962363
0003c0 7b 79 e4 bd 63 28 27 be 79 6c 2f 3e 38 2f 5c 3d
       -0.11155983 -0.16324 0.17131223 0.05375597
0003d0 76 99 14 be 1e c5 cd 3d 1d f7 19 be f7 dd 9a 3d
       -0.14511666 0.10047363 -0.15035672 0.07561868
0003e0 ee ed ef bd 26 9e d2 3d d5 44 d0 bd 5b 98 8f bd
       -0.11715303 0.10284071 -0.10169379 -0.070114814
0003f0 5b c4 a7 bd c3 c8 12 be 46 9e f4 bd a4 9b 88 3d
       -0.08191749 -0.14334397 -0.11944251 0.06670311

blocks.0.fcn_layer.bias f4 [32]
000000 ba 59 46 bd e5 d6 57 3d 90 91 61 3c 12 e1 18 3c
       -0.048425414 0.052695174 0.013767615 0.009331005
000010 91 74 25 be 0f 98 90 bb 46 40 0d 3e de be 01 3e
       -0.16157748 -0.004412658 0.1379405 0.12670466
000020 de 12 e9 bd 1c 78 c3 bc 32 9e cb bd 6a 58 4e bd
       -0.11380552 -0.023860984 -0.09942283 -0.050377287
000030 8f 4a 09 be 16 44 b3 bd c2 d8 ed 3d 8b 2d 06 3d
       -0.13407348 -0.08753221 0.11613609 0.032758277
000040 90 16 e8 bd 66 6a 10 be 60 e8 ff 3d e9 92 0c be
       -0.113324285 -0.14103088 0.12495494 -0.13727917
000050 5d c5 c8 3d 0a ca 36 bd 59 93 3b bc 81 31 41 bd
       0.09803269 -0.044626273 -0.011448705 -0.04716635
000060 ff dd 8c 3b 66 ad 0d bd 15 03 cf 3b cf 1a 1f 3e
       0.004298925 -0.034589194 0.006317506 0.1553757
000070 4d c1 3a bb 30 ab 8a bd 16 1f 27 3e eb dc ea bd
       -0.0028496564 -0.06770933 0.16320452 -0.11467918

blocks.0.layer_norm.weight f4 [32]
000000 ed d1 9e 3f ee 63 81 3f f6 0d 81 3f 3a d7 92 3f
       1.2407814 1.0108621 1.0082386 1.1471932
000010 99 96 84 3f 97 f9 8c 3f 31 4f 82 3f 42 24 87 3f
       1.0358459 1.1013669 1.0180417 1.055794
000020 dc b5 9e 3f 4d c0 9b 3f 16 14 80 3f de 41 7f 3f
       1.2399249 1.216806 1.000613 0.9970988
000030 0a 20 9a 3f 0e 48 76 3f 1a 37 77 3f cf c2 88 3f
       1.2041028 0.96203697 0.96568453 1.0684451
000040 ae 71 9a 3f c2 b6 81 3f 3e a6 7f 3f c9 d5 8d 3f
       1.2065942 1.0133898 0.9986304 1.1080867
000050 14 96 9a 3f fe d0 7f 3f 1e 83 b2 3f 32 c6 9a 3f
       1.207705 0.9992827 1.3946264 1.2091734
000060 78 c8 93 3f 35 88 7c 3f c6 6d 9a 3f c3 32 7d 3f
       1.1545553 0.98645335 1.206475 0.9890558
000070 5b d2 7f 3f 51 0e 80 3f 37 ef 87 3f 54 6b 9e 3f
       0.9993035 1.0004369 1.0619878 1.2376504

blocks.0.layer_norm.bias f4 [32]
000000 62 56 60 3e 68 ab 56 3c 82 84 54 3c 76 93 07 3e
       0.21907952 0.01310239 0.012971045 0.13239846
000010 d4 a3 9d 3c 1b 00 70 3d 0a 27 07 3d 12 b2 12 3d
       0.019243158 0.05859385 0.032996215 0.035814352
000020 c2 e1 64 3e 8e e9 5c 3e 2a dc b9 3a 4e 6e 92 bb
       0.22351745 0.21573469 0.0014179994 -0.0044687157
000030 d3 15 5d 3e 86 1c 24 bd fd c3 26 bd b5 41 34 3d
       0.21590357 -0.040066265 -0.040714253 0.044007976
000040 a3 c8 58 3e a9 c4 bb 3c 37 4b aa 3a 73 6f 25 3d
       0.21170287 0.022920923 0.0012992386 0.04038949
000050 b0 88 5c 3e 72 80 17 bb 30 79 93 3e 5d 8c 5b 3e
       0.21536517 -0.002311733 0.28803396 0.21440263
000060 82 19 43 3e 82 0c a9 3b 1d 2b 5c 3e 50 74 89 bc
       0.19052699 0.0051589618 0.21500821 -0.016779095
000070 64 07 1c ba 12 53 e3 ba 64 c6 11 3d 58 16 65 3e
       -0.0005952029 -0.0017343482 0.03558959 0.22371805

last_layer.weight f4 [1, 32]
000000 cc 93 c0 be 5e 1a 01 3e 1d 57 fb bc 5f 3f a0 3e
       -0.3761276 0.12607715 -0.030681187 0.31298348
000010 70 1e 4d 3e d2 ba ad 3d 0c ab 83 bd 76 e5 43 3e
       0.20031142 0.08482899 -0.06429109 0.19130501
000020 d9 94 ad be 12 f2 b0 be d8 57 2c 3c eb ca 37 3d
       -0.33902624 -0.34559685 0.01051899 0.044871252
000030 6a 22 a2 be 0b a7 95 bd a1 ab a1 bd de b8 58 3e
       -0.3166688 -0.073072515 -0.07894064 0.21164271
000040 90 ef b3 be f1 96 0c 3e 94 7c 41 3d 79 d7 83 3e
       -0.3514371 0.13729455 0.047237948 0.2575033
000050 ee d6 a6 be 2f 7e 22 3e 9a 6b bd be ee f0 b4 be
       -0.32585853 0.15868448 -0.36996156 -0.35340065
000060 02 02 8f 3e 30 d9 d3 3c 02 9e b5 be ba 22 ee bb
       0.2793122 0.025860399 -0.35472113 -0.0072673233
000070 72 bd 21 3e 4b 63 94 bc 1b e5 7a 3d 07 fe ab be
       0.15794924 -0.018113753 0.06125365 -0.33592245
