ok_vanpi.onnx (onnx, 205430 bytes, 9 tensors)

layer1.weight f4 [32, 1536]
00000000: 022f 9ebc 1931 9abc 8f1b 66bc c5b0 3abd
00000010: bee9 5b3c e5b4 b1bc cf37 7b3b 816b b7ba
00000020: 5b73 f33b c8b2 a6bb 3f81 4fbc 7ed1 963b
00000030: 1dcb 1bbc e430 a63c 4aed f5bc 321d 18bc
00000040: 9972 3f3b aa69 873c 8ff3 813b 3a98 a337
00000050: 8b7d 64bc b564 dd3b fe98 293b ef6f 593c
00000060: f032 8b3b 2555 81bb 0a37 463b 1542 70bc
00000070: fdfd 22bc 0145 a53a 325c e43c 1de9 dab8
00000080: 2556 b33c 069c cd3c 7c6d 7fbc b839 623c
00000090: f42d ba3c 7308 3a3c 0383 ac3a 8928 9dbc
000000a0: 3eac dcba f817 31bc 2545 c3bc 98b2 8f3c
000000b0: 8457 d13b fc59 5d3b bb58 aa3c dace cebc
000000c0: 9e2d 87ba 46df 1f3c 5a3c 133c 55c0 1dbc
000000d0: d94a f63b 43aa 413b 94a2 99bc 4779 723c
000000e0: 1696 163b 68b0 12bc 78d4 2dbb 4ce1 a13c
000000f0: f5f1 53bc bdeb 9a3c e0b8 b1bb a041 e2bc
00000100: bbee efbb 291c 6d3b 4853 223d 8f6c 9d3c
00000110: 3bc3 57bc b0e6 1abc 9e6c 76bc 0ea2 7c3b
00000120: 1907 87bc 5f19 cbba 9ce1 c83b 1978 873c
00000130: 5bd3 063d 01ec 6abc cbda 603c 0fed b4bc
00000140: e252 1fbc 06b9 32bc c931 d13c 6514 64bb
00000150: 1cbc 8e3a b822 eebc 8c8c 6e3c 9e3c 0e3b
00000160: 3061 a73c 4c51 e13b da1b 873c f93d 1d3c
00000170: a112 d2bb 7e00 87bc 05f2 9abb 1864 7dbc
00000180: f53d a53c 2169 74bc d966 aeba 1711 41bd
00000190: ab53 ff3c 0356 a83c 2086 e9bb 7d0e 9e3c
000001a0: 97fd df3b 6bd1 a23c 9215 93bb b782 783c
000001b0: c956 523b 9e21 2a3b a9c9 583c ec80 c13b
000001c0: 2cc5 b83c 4f48 073d ec66 d0bb 2a25 52bc
000001d0: f318 f0bb 76eb 5c3c a14f 7dbc 431b 173c
000001e0: ee84 413c 0f0c 383c b0f9 5bbc 0f6f fb3c
000001f0: 4243 68bb cb33 90bc 5b14 943c dee7 90bc
00000200: 81e3 513c 8a5e b23c 65a5 06bd b767 97bc
00000210: 70c0 40bc b096 6ebb f049 b3bc 4dab 45bc
00000220: a1f8 34ba 1970 9f3b a1c2 8d3a 17e7 cb3c
00000230: 177c bebc 9db1 31bc f887 743b adc1 10bb
00000240: 39d1 5b3c 9062 4f3c 438d 7dbb 3f6c c33c
00000250: cbc0 0b3c 16e6 3fba c478 d8bb 196e a3bb
00000260: 8ac0 15bb 492f 363b b097 bfbc 933f 0ebc
00000270: 823e 9cbc 3f71 f0bc af06 773c 25cc f33b
00000280: 8400 023c a980 f3ba a641 e83c 5d6a ebbb
00000290: e568 c3bc e71d 8dbb 841f 073c be5a 1cbc
000002a0: 606d b03c 01e5 b4bc 3fa8 d23b e0d6 e3ba
000002b0: 1618 1e3d 1036 c53c 8c08 92bb 732c b33a
000002c0: d606 ed3a a351 d43b c979 b0bc c30e 0d3c
000002d0: 7df7 553c 7c29 b4bc c05a 04bc 6409 993c
000002e0: 1535 4a3b 5b99 6cbc d006 f9b9 9a7a 90bc
000002f0: 009c a63b b9ce bdbc 3e50 84bc 2fe3 d03c
00000300: 08c2 903c 9ca9 013d f71a 87bb aa58 3bbd
00000310: f0d2 22bc 8e5e 84bb df6d 4c3c b237 3c3c
00000320: 6c16 52bc 532f 033a 89b6 a9bc 33a1 c83c
00000330: b699 bcbb 1191 98bc d17d 903c e487 713c
00000340: 0b89 06bb c2fd b83c aba5 c53c 6670 b3bc
00000350: 4d44 a4bc f493 a9bc 65e3 14bc 0f34 103c
00000360: 7409 ecbb 07eb 88bc 68e7 933c 6123 88bc
00000370: 9444 03bd 6d74 d33c e8b1 553b 9eb6 bc3c
00000380: 9160 8ebc c210 9dbc 4b51 68bc c4b5 94bc
00000390: 8370 1b3c 3783 13bc ce45 aabb adac 823a
000003a0: f74b ccbb e446 06bc 0716 c73b 6644 0dbc
000003b0: 1d90 54bc 2b00 94bc a3e5 693c ce10 babc
000003c0: 4555 efbb 674e 5c3c 916c 95bc 6d36 e63b
000003d0: 0090 00bd 0d77 323b cbae 32bb 0061 393c
000003e0: 4e0b 4cbc 4496 b13c 22b6 113c 6c53 75bc
000003f0: 368f 78bc 5854 06bd a421 263c d68c d9bc
-0.019309524 -0.01882224 -0.014044656 -0.045578737 0.013422428 -0.021692703 0.0038332825 -0.0013993831
0.007429523 -0.0050872304 -0.012665092 0.00460261 -0.009508875 0.020286985 -0.030020375 -0.009284304
0.0029212593 0.016529877 0.003965802 1.9502e-05 -0.013945947 0.00675639 0.0025878544 0.013271316
0.0042480156 -0.0039469176 0.0030245208 -0.014664193 -0.009948251 0.0012609066 0.027875993 -0.00010438471
0.021891663 0.025098812 -0.015590068 0.013807707 0.02272699 0.0113545535 0.0013161603 -0.019184368
-0.0016836 -0.010808937 -0.023836682 0.017541215 0.0063886065 0.0033775559 0.020794263 -0.025245119
-0.0010313278 0.009757822 0.008986557 -0.009628375 0.0075162468 0.0029550947 -0.018754281 0.014799423
0.0022977642 -0.008953191 -0.0026524346 0.01976075 -0.012936105 0.018911237 -0.00542365 -0.027619183
-0.00732216 0.0036180115 0.039630204 0.019216804 -0.013169105 -0.009454414 -0.015040545 0.003854874
-0.016482877 -0.0015495232 0.0061304104 0.01653676 0.032916408 -0.014338494 0.013724039 -0.022085695
-0.009724351 -0.010908371 0.025536435 -0.0034802195 0.0010889801 -0.02906929 0.014559876 0.002170361
0.020432085 0.0068761464 0.016492773 0.009597295 -0.006410912 -0.016479727 -0.004728558 -0.015465759
0.020171145 -0.014917643 -0.0013305797 -0.04713544 0.031167826 0.020548826 -0.0071265846 0.019294018
0.00683565 0.019875249 -0.0044886554 0.015167884 0.0032095185 0.0025959979 0.013231673 0.0059052613
0.022554956 0.033027943 -0.0063599255 -0.012826243 -0.007327193 0.013483873 -0.01546088 0.009222808
0.011811478 0.011233344 -0.013426229 0.030692605 -0.003544048 -0.017602822 0.018076112 -0.017688688
0.012810589 0.021773595 -0.032872576 -0.018482072 -0.011764631 -0.0036405735 -0.021885842 -0.012064767
-0.00069035037 0.004865658 0.001081545 0.024890466 -0.02325253 -0.010845569 0.003731249 -0.0022088096
0.013416582 0.0126577765 -0.0038688935 0.023855327 0.008529852 -0.0007320357 -0.0066061933 -0.00498749
-0.0022850358 0.002779918 -0.02338776 -0.008682149 -0.019072775 -0.029350875 0.015077277 0.0074401074
0.007934693 -0.0018577772 0.028351616 -0.0071843104 -0.023853729 -0.004306543 0.00824726 -0.009543119
0.021536529 -0.022081854 0.006428748 -0.0017382763 0.03859719 0.02407363 -0.0044565853 0.0013669863
0.0018083702 0.0064794584 -0.021542447 0.0086094765 0.013059494 -0.021992438 -0.008078277 0.018681236
0.0030854393 -0.01444086 -0.00047498057 -0.017636586 0.0050845146 -0.023169862 -0.016151544 0.025498955
0.017670646 0.031655893 -0.0041230875 -0.045738854 -0.009937987 -0.004039592 0.012477367 0.011487888
-0.012822729 0.0005004305 -0.020716922 0.024490928 -0.0057556285 -0.01862386 0.017638119 0.0147418715
-0.0020528461 0.022581939 0.024126848 -0.021904182 -0.0200521 -0.020700432 -0.009087418 0.008801474
-0.0072032753 -0.016713632 0.018054679 -0.016618432 -0.032047823 0.025812352 0.003260726 0.023036297
-0.01738003 -0.01917303 -0.014179538 -0.018153079 0.009487274 -0.009003452 -0.0051963096 0.0009969674
-0.0062346417 -0.008195613 0.006075624 -0.0086222645 -0.012973812 -0.018066486 0.014275941 -0.022713091
-0.007303866 0.013446427 -0.018240245 0.007025531 -0.03138733 0.0027231604 -0.002726483 0.0113146305
-0.012453867 0.021678098 0.0088935215 -0.014973503 -0.015170863 -0.03279528 0.0101398565 -0.026556414

layer1.bias f4 [32]
00000000: 133f 8a3c 333f 86bc dff6 803c b842 babc
00000010: c3b3 6abc 70b5 7ebb dea0 883b b806 cabb
00000020: 46e3 b73c 68cc 56bc 10db de3c 323b 2cbb
00000030: 8d79 a5bb 3c26 f83c a547 e0bb 799a d73b
00000040: dc11 db3b 892f 6f3c 218a 1ebc 18f6 3b3b
00000050: 104a 623c 762a 913b a4c2 983c 0ec5 1bbb
00000060: 1d92 553c 548c 6cbc 8f86 2d3c 6096 84bc
00000070: e4f0 e0bc 627a 85bc 4298 acbc ff5e 783c
0.01687578 -0.016387558 0.015742717 -0.022736892 -0.014325085 -0.003886547 0.0041695675 -0.0061653517
0.02244724 -0.013110258 0.027204067 -0.00262804 -0.0050498904 0.03029167 -0.006844478 0.006579694
0.0066854786 0.014598736 -0.009676487 0.002868062 0.013811603 0.0044301106 0.0186475 -0.0023768577
0.013035324 -0.014437754 0.010591163 -0.016184986 -0.027458616 -0.016293708 -0.021068696 0.015159368

layernorm1.weight f4 [32]
00000000: 6765 7e3f 3d0e 7f3f fb6b 7c3f 0284 7d3f
00000010: 61f6 803f 1aa3 7f3f 1f91 823f 1d0e 803f
00000020: 6e96 7c3f 1c15 7f3f 10f6 783f bc7a 7d3f
00000030: 008d 7f3f 7b2f 813f c07b 7e3f cb8c 783f
00000040: eb69 7f3f 5ce9 7a3f c2e4 893f d297 7f3f
00000050: 43fe 7f3f edf0 7d3f 7f69 853f dcfb 7e3f
00000060: 3cb2 843f d42a 7a3f d355 7e3f 44bd 7f3f
00000070: 538e 7f3f e7e8 813f 3414 813f 6522 7f3f
0.9937348 0.996311 0.98602265 0.9902955 1.0075189 0.9985825 1.0200537 1.0004307
0.9866704 0.99641585 0.9725046 0.990154 0.99824524 1.0092615 0.9940758 0.97089833
0.99770993 0.9801233 1.0772936 0.99841034 0.9999735 0.9919575 1.042282 0.99603057
1.0366893 0.977216 0.9934971 0.9989817 0.99826545 1.0149201 1.008429 0.99661857

layernorm1.bias f4 [32]
00000000: 1e5f 323a a1d5 14ba b41e 003c febb 2ebb
00000010: 79f1 c93b 2d5b 03bc 609d d33b 1c4b 853b
00000020: 043b 0a3d 0108 0cbc e90b 143c d30d 633a
00000030: bdb8 37bb 7816 8c3b 03a5 183d c738 d63b
00000040: 6bf9 85bb 64f3 043d 5e1e d03c eed1 ffbb
00000050: 6b00 8f3b 0e3a a63b e5d7 203d 6072 8cbb
00000060: ff8d f13c 13c7 313c c98a 1c3b b72d e83b
00000070: 7356 6fbb b6ac 883c 98ad 063c 3db4 e5bb
0.00068043347 -0.0005677585 0.00781982 -0.0026662345 0.006162819 -0.0080173435 0.0064579695 0.0040677916
0.033747688 -0.00854683 0.009036043 0.0008661423 -0.0028033697 0.0042751394 0.037266742 0.00653753
-0.004088571 0.032458678 0.025405105 -0.007807008 0.0043640635 0.0050728386 0.039268393 -0.0042860955
0.029486654 0.010850686 0.0023886433 0.0070855278 -0.0036520034 0.016683917 0.008220099 -0.0070100115

blocks.0.fcn_layer.weight f4 [32, 32]
00000000: c65e 3ebd 5a2a 33be 7aae fdbd bd54 f03d
00000010: 56a7 03be 8c6e a3bd b69b 883d 113e ac3d
00000020: ec00 30bb 9db0 3c3a b5b8 123e 9dc8 c83d
00000030: 16fe 293e 2a09 5abd 2c55 ce3d 18db 143d
00000040: e459 ea3d eeb9 813d 5432 53be 460b 2e3e
00000050: af2f 2cbe 8bfa ad3d c0e1 0d3e 7259 803d
00000060: 2222 203e 96e1 d53d d6ed f6bd 5a3b b4bd
00000070: 03c0 9a3d 8bf2 02be 6f51 0e3e 85e6 623c
00000080: ab04 adbd 1e4a 01be 1380 813d a52b 87bd
00000090: 9222 1b3e 9cca 2bbe 169a 41bc 5557 b5bd
000000a0: 11a7 c8bd 96a8 2d3e 6cc1 8bbd b6bb c03d
000000b0: 8a39 ee3d 7fe3 f7bd f7d3 17bc 9dfa 9fbd
000000c0: 1f2e 283d 98a8 c83d de89 b23d 3494 38bd
000000d0: e1e2 9ebc 47e8 f43d 5143 abbc 340a c3bc
000000e0: 7d00 24be deec 573d 817e 103c 5352 513e
000000f0: a575 81bd 123b b6bd 7717 9a3d 0a53 a53d
00000100: d5da ed3d c333 a1bd 0e50 553c 5ac4 313e
00000110: 0824 083e b2e6 4ebd 6ac7 d3bc cce0 6cbd
00000120: 54cd 473e 0864 2dbe 7aee a8bd 4fbb e03d
00000130: d3bb 00be 96d9 0ebe 7ffb 043e dda2 a53b
00000140: 0418 d2bb c48a b8bc 0352 a4bd ba6e 8a3d
00000150: 12a5 0e3e 87d2 82bd 911f 5b3e e00e 1d3e
00000160: 0665 0b3d e412 adb9 3312 893d d096 973d
00000170: 170a d33d 80bd d9bc 576e e23d 5264 13be
00000180: 81ea 133b df7e fb3d f4d8 28bd 180e 343d
00000190: afec 14bd 2c6b 913d 4981 043e 1312 6bbc
000001a0: 2f7a 12be c50d 2a3e 51e2 35be 2015 fd3d
000001b0: 75c9 64bd c352 30be 19b0 17be 2e17 813d
000001c0: 353e 943c 390a f43d 5e04 e13d 4d2a c33c
000001d0: 4b53 04bd 27a4 58bd ef0f 0dbe 5dfa 15be
000001e0: ce1d 8c3b baf1 023e 7a12 a73d afa9 0ebe
000001f0: c115 203d c167 d3bc 9118 273e c270 b13d
00000200: 6e2c 4e3d 73f3 13bc 99f0 a0bd e46e 283e
00000210: a7c9 5b3e 0bb8 8abd bf6e 2e3e 7db7 003d
00000220: 2aff 493e 33f2 80bd 4e00 0abe a711 0d3d
00000230: fb94 1ebe c83a 20be c501 343d 61d3 df3d
00000240: 1479 133e d142 f6bd 34ac 46bb afa7 23be
00000250: 31ec 1d3e 97fc acbd 00ee 083e 9ffd 103e
00000260: 0b1e 253d 7f0f 26be 1ddd 62bd c9f3 e5bd
00000270: a2cd acbc 17be 9abd f79a b7bd 18ad 06bd
00000280: a17d 8abd f31f aebc d28b f2bc a8dc 27bc
00000290: b770 e5bd 42e1 003e c9fd 89bb fd54 8cbd
000002a0: 61b2 0bbe 0927 2d3d e33b 0a3e b174 cf3c
000002b0: b271 c2bd 5921 553e 2999 193c 14dc 16bd
000002c0: 1322 c93d 9170 1cbd 4a4d 323e 87a9 13be
000002d0: 16a4 f9bd 61a3 8bbd db62 803d b8b9 2cbc
000002e0: c878 4abd 4781 363d 865e 36be 7cee 79bc
000002f0: 02c8 d4bc 8a11 8d3d 0597 f03d 45b0 8abd
00000300: 3859 6abd 7527 28be 26eb 33be a0db debd
00000310: 7fc0 7f3d a03f 403c e8b4 47bd abb9 a33d
00000320: 24a5 d43d d036 f63d 1fca 8ebd 7808 16be
00000330: ecd5 2f3e 9bae 26be ad21 0cbe 7c95 e93c
00000340: 8547 823d ed85 e43d 1c67 b03d d365 443d
00000350: cfa1 30be a5e2 36be a334 1b3d 5149 1abe
00000360: 1946 33be aaf6 a6bd b78b 26be 41d0 803d
00000370: f5b6 c73d 0207 513a d139 c63d b771 133e
00000380: 8899 8439 08ec 8c3c b68f b1bd 9f77 85bc
00000390: 5f5e 4dbc 3b8e 923d af79 07be 8c56 bb3d
000003a0: ac30 d2bc 7152 13be 2ee1 023d 0aa1 d23d
000003b0: d7c1 213e 20f4 a53c bcfa a53d aa1d 60bd
000003c0: 4916 b1bd adb9 b33b 942c 18be f08d e43d
000003d0: d277 26be 8ce3 03be 338b 52bd c864 ff3d
000003e0: b70b f6bd d822 f03d dd47 8f3c 5b32 f23d
000003f0: 74b1 2f3d d5be 163e 003d a73d aebc f63d
-0.0464771 -0.17496625 -0.123867944 0.117349125 -0.12856802 -0.079800695 0.066703245 0.08410276
-0.0026856018 0.0007197948 0.14328273 0.09803889 0.16600832 -0.053231396 0.10074839 0.036341757
0.114429265 0.063342914 -0.20624667 0.16996488 -0.16815065 0.08495053 0.13855648 0.0626706
0.1563802 0.10443418 -0.12057082 -0.08800383 0.075561546 -0.12787835 0.13898252 0.013848905
-0.08448156 -0.1262593 0.06323256 -0.066001214 0.15149906 -0.16776508 -0.011816522 -0.08854548
-0.097974904 0.16958842 -0.06824002 0.09410803 0.116320685 -0.12103938 -0.009266845 -0.078114726
0.04105961 0.09797782 0.08717702 -0.045063213 -0.019395294 0.11958366 -0.020906122 -0.023808576
-0.16015811 0.05271613 0.008819223 0.2044156 -0.06321267 -0.088979855 0.07524007 0.08072479
0.116140045 -0.07871201 0.013019575 0.17360058 0.13294995 -0.050512977 -0.025851924 -0.05783157
0.1951192 -0.1693269 -0.08248611 0.10973226 -0.12571649 -0.1395019 0.12986563 0.005054815
-0.0064115543 -0.022527106 -0.08023455 0.06759401 0.13930157 -0.06387811 0.2139876 0.15337706
0.03403189 -0.00033011206 0.06692924 0.07401812 0.10304659 -0.026579618 0.11056202 -0.14393738
0.0022570195 0.12280058 -0.041222528 0.043958753 -0.03635853 0.071005195 0.12939943 -0.014347571
-0.14304422 0.16606815 -0.17762114 0.12357545 -0.055856187 -0.17219071 -0.1481327 0.06303249
0.018096069 0.11916012 0.10987161 0.023823882 -0.032305997 -0.052890923 -0.1377561 -0.14646287
0.004276014 0.12787524 0.08157821 -0.13931917 0.039083246 -0.02580631 0.16317965 0.08664085
0.05033534 -0.009030211 -0.0785839 0.16448551 0.21463643 -0.06773385 0.17034434 0.031424988
0.19726244 -0.06296196 -0.13476679 0.034440663 -0.15486519 -0.15647423 0.043947 0.10928989
0.14401656 -0.12024463 -0.0030315043 -0.15981935 0.15422131 -0.08446615 0.1337204 0.14159249
0.040311854 -0.16216849 -0.05538665 -0.11228139 -0.021094147 -0.07555788 -0.08965104 -0.03287992
-0.06762243 -0.021255469 -0.029607687 -0.01024548 -0.11203139 0.12585929 -0.0042111618 -0.06852148
-0.13642265 0.042273555 0.13499407 0.025324197 -0.09494342 0.20813502 0.009374895 -0.036830977
0.09820952 -0.03819329 0.17412296 -0.14420138 -0.121895 -0.068182714 0.06268855 -0.010542326
-0.049431592 0.044556882 -0.17809495 -0.015254613 -0.025974277 0.06888111 0.11747555 -0.06771902
-0.057213992 -0.16421302 -0.17570171 -0.10881734 0.062439438 0.011733919 -0.04875651 0.07994398
0.103830606 0.120221734 -0.06972145 -0.14651668 0.17171448 -0.16277544 -0.13684721 0.028513663
0.063612975 0.11158357 0.086134166 0.04794867 -0.17249225 -0.17859896 0.037891995 -0.1506703
-0.17507209 -0.08152516 -0.16264234 0.06289721 0.09751693 0.00079737615 0.09678996 0.14398848
0.00025291392 0.017202392 -0.08669989 -0.016292391 -0.012534707 0.071560346 -0.13230012 0.09147367
-0.025657974 -0.14386918 0.03195303 0.10284622 0.157966 0.02025801 0.081044644 -0.05471579
-0.08646829 0.0054847808 -0.14860755 0.11159885 -0.16256645 -0.12879771 -0.051402282 0.124703944
-0.12013953 0.11725396 0.017490322 0.11826011 0.042893842 0.14721234 0.08165932 0.120477065

blocks.0.fcn_layer.bias f4 [32]
00000000: 892e 813c 9bf4 08bd f13e 25be 6579 0abe
00000010: 0411 953d d5fb dcbd 7d25 fb3d df86 cd3d
00000020: 9989 893b 8960 ddbd 9cbb 973d 31f2 903d
00000030: 9cc5 5fbc 7a8c 0f3e 96a3 723b 0528 76bc
00000040: 14de 973d ba63 f9bc 0955 26bc 8b00 fdbd
00000050: d218 ebbd b1f6 173e 5809 ea3d a90e 003e
00000060: ff6e cdbc 7148 d03d 5f38 3f3e 44ae 6f3d
00000070: 1e30 63bc c57f c6bd cf14 d83d b0ac 203e
0.01576926 -0.0334364 -0.16137291 -0.13522871 0.07278636 -0.10790221 0.1226301 0.1003549
0.004197311 -0.10809428 0.074088305 0.07077444 -0.013657954 0.14018431 0.0037023774 -0.01502419
0.07415405 -0.030443061 -0.01015211 -0.12353619 -0.114793435 0.14840199 0.114275634 0.12505592
-0.025077341 0.10170067 0.18673848 0.058515802 -0.0138664525 -0.09692339 0.10550844 0.15690875

blocks.0.layer_norm.weight f4 [32]
00000000: 6dd4 853f baab 843f 23c7 883f c46a 7e3f
00000010: c991 8d3f 4fda ab3f 702e 803f 600b 803f
00000020: 83a7 843f 2514 7d3f 1386 9d3f 73b3 7f3f
00000030: 720d 813f 1bf7 7e3f 0b31 b13f 2826 8d3f
00000040: 52fe 813f 56fd 803f d009 823f 9eff 8a3f
00000050: 0f90 7e3f d80a 7f3f d2a1 7f3f a161 803f
00000060: 6a0f 803f e503 a33f fb91 7f3f 44e7 a13f
00000070: 666d 853f 7d34 ae3f 3c9d 9b3f 27a4 9c3f
1.0455452 1.0364907 1.0685772 0.9938166 1.1060115 1.3425997 1.0014172 1.0003471
1.036362 0.98858863 1.2306541 0.9988319 1.0082228 0.99595803 1.3843092 1.1027269
1.0155737 1.0077312 1.0159245 1.0859258 0.99438566 0.9962592 0.99856293 1.0029794
1.0004704 1.2735564 0.99832124 1.2648702 1.0424011 1.3609768 1.2157359 1.2237595

blocks.0.layer_norm.bias f4 [32]
00000000: 40c2 cc3c 85fc 9f3c 848f e33c 0444 1bbc
00000010: 0b94 7d3d 8a79 963e 4fa9 38bb 4c0d ae39
00000020: c822 cd3c f7ee f9bc 4cb9 7a3e 943a cabb
00000030: 25c8 873b fab2 99bb 303c 9e3e e87d 873d
00000040: 1143 f93c 19ec 2e3c a956 0f3c 5e41 9d3d
00000050: 9fc6 c2ba 154f e23b def5 19bc 59ec 453b
00000060: 726d 0cbb 9761 833e 1b41 443c 4f10 843e
00000070: 78b3 c93c 35bf 993e 2315 783e 4676 783e
0.02499497 0.01952959 0.027778395 -0.009476665 0.061908763 0.29389602 -0.0028177088 0.00033197773
0.025040999 -0.030509455 0.24484748 -0.006171534 0.004143732 -0.004690525 0.30905294 0.066158116
0.030427488 0.010676407 0.008748689 0.076784834 -0.0014860219 0.0069064 -0.009396998 0.0030200689
-0.002142754 0.25660393 0.011978413 0.25793692 0.02462171 0.30028692 0.24226813 0.24263868

last_layer.weight f4 [1, 32]
00000000: be4a 263e e4ce 333e 3720 293e 5d4a 213e
00000010: c93b 333e bae7 aabe 6b85 233c 24c9 5cbd
00000020: 1252 493e a810 4b3d bdd0 b2be a3b5 b73c
00000030: 48c0 1f3e 7bca fe3d 1504 b2be 7c47 d83d
00000040: acab 20bc b286 a3bc 35cf 3a3e 1fef 813e
00000050: 2578 a6bd 8e00 983b 50a1 fc3c 3c35 ccbc
00000060: 6cc0 0ebd 34db b7be 531e e6bc 4c7b b9be
00000070: dce9 443e 03ae abbe 7d9f a9be 128b b1be
0.1623945 0.17559391 0.16516195 0.15751024 0.17503275 -0.33379918 0.00998054 -0.05390276
0.19660214 0.04957643 -0.3492488 0.022425478 0.15600693 0.12440964 -0.3476874 0.105605096
-0.009806555 -0.019961689 0.18243106 0.25377747 -0.081283845 0.004638738 0.030838639 -0.024927728
-0.034851477 -0.35909426 -0.028090632 -0.3622688 0.19229835 -0.33531198 -0.33129492 -0.34676415
